…
 auto_augment=randaugment, erasing=0.4, crop_fraction=1.0, cfg=None, tracker=botsort.yaml, save_dir=runs/detect/train3\n","Downloading https://ultralytics.com/assets/Arial.ttf to '/root/.config/Ultralytics/Arial.ttf'...\n"]},{"name":"stderr","output_type":"stream","text":["100%|██████████| 755k/755k [00:00\u003c00:00, 89.5MB/s]\n"]},{"name":"stdout","output_type":"stream","text":["Overriding model.yaml nc=80 with nc=14\n","\n","                   from  n    params  module                                       arguments                     \n","  0                  -1  1       464  ultralytics.nn.modules.conv.Conv             [3, 16, 3, 2]                 \n","  1                  -1  1      4672  ultralytics.nn.modules.conv.Conv             [16, 32, 3, 2]                \n","  2                  -1  1      7360  ultralytics.nn.modules.block.C2f             [32, 32, 1, True]             \n","  3                  -1  1     18560  ultralytics.nn.modules.conv.Conv             [32, 64, 3, 2]                \n","  4                  -1  2     49664  ultralytics.nn.modules.block.C2f             [64, 64, 2, True]             \n","  5                  -1  1     73984  ultralytics.nn.modules.conv.Conv             [64, 128, 3, 2]               \n","  6                  -1  2    197632  ultralytics.nn.modules.block.C2f             [128, 128, 2, True]           \n","  7                  -1  1    295424  ultralytics.nn.modules.conv.Conv             [128, 256, 3, 2]              \n","  8                  -1  1    460288  ultralytics.nn.modules.block.C2f             [256, 256, 1, True]           \n","  9                  -1  1    164608  ultralytics.nn.modules.block.SPPF            [256, 256, 5]                 \n"," 10                  -1  1         0  torch.nn.modules.upsampling.Upsample         [None, 2, 'nearest']          \n"," 11             [-1, 6]  1         0  ultralytics.nn.modules.conv.Concat           [1]                           \n"," 12                  -1  1    148224  ultralytics.nn.modules.block.C2f             [384, 128, 1]                 \n"," 13                  -1  1         0  torch.nn.modules.upsampling.Upsample         [None, 2, 'nearest']          \n"," 14             [-1, 4]  1         0  ultralytics.nn.modules.conv.Concat           [1]                           \n"," 15                  -1  1     37248  ultralytics.nn.modules.block.C2f             [192, 64, 1]                  \n"," 16                  -1  1     36992  ultralytics.nn.modules.conv.Conv             [64, 64, 3, 2]                \n"," 17            [-1, 12]  1         0  ultralytics.nn.modules.conv.Concat           [1]                           \n"," 18                  -1  1    123648  ultralytics.nn.modules.block.C2f             [192, 128, 1]                 \n"," 19                  -1  1    147712  ultralytics.nn.modules.conv.Conv             [128, 128, 3, 2]              \n"," 20             [-1, 9]  1         0  ultralytics.nn.modules.conv.Concat           [1]                           \n"," 21                  -1  1    493056  ultralytics.nn.modules.block.C2f             [384, 256, 1]                 \n"," 22        [15, 18, 21]  1    754042  ultralytics.nn.modules.head.Detect           [14, [64, 128, 256]]          \n","Model summary: 225 layers, 3,013,578 parameters, 3,013,562 gradients, 8.2 GFLOPs\n","\n","Transferred 319/355 items from pretrained weights\n","\u001b[34m\u001b[1mTensorBoard: \u001b[0mStart with 'tensorboard --logdir runs/detect/train3', view at http://localhost:6006/\n","Freezing layer 'model.22.dfl.conv.weight'\n","\u001b[34m\u001b[1mAMP: \u001b[0mrunning Autom
…
as_lr=0.1, box=7.5, cls=0.5, dfl=1.5, pose=12.0, kobj=1.0, label_smoothing=0.0, nbs=64, hsv_h=0.015, hsv_s=0.7, hsv_v=0.4, degrees=0.0, translate=0.1, scale=0.5, shear=0.0, perspective=0.0, flipud=0.0, fliplr=0.5, bgr=0.0, mosaic=1.0, mixup=0.0, copy_paste=0.0, auto_augment=randaugment, erasing=0.4, crop_fraction=1.0, cfg=None, tracker=botsort.yaml, save_dir=runs/detect/train2\n","Overriding model.yaml nc=80 with nc=27\n","\n","                   from  n    params  module                                       arguments                     \n","  0                  -1  1       928  ultralytics.nn.modules.conv.Conv             [3, 32, 3, 2]                 \n","  1                  -1  1     18560  ultralytics.nn.modules.conv.Conv             [32, 64, 3, 2]                \n","  2                  -1  1     29056  ultralytics.nn.modules.block.C2f             [64, 64, 1, True]             \n","  3                  -1  1     73984  ultralytics.nn.modules.conv.Conv             [64, 128, 3, 2]               \n","  4                  -1  2    197632  ultralytics.nn.modules.block.C2f             [128, 128, 2, True]           \n","  5                  -1  1    295424  ultralytics.nn.modules.conv.Conv             [128, 256, 3, 2]              \n","  6                  -1  2    788480  ultralytics.nn.modules.block.C2f             [256, 256, 2, True]           \n","  7                  -1  1   1180672  ultralytics.nn.modules.conv.Conv             [256, 512, 3, 2]              \n","  8                  -1  1   1838080  ultralytics.nn.modules.block.C2f             [512, 512, 1, True]           \n","  9                  -1  1    656896  ultralytics.nn.modules.block.SPPF            [512, 512, 5]                 \n"," 10                  -1  1         0  torch.nn.modules.upsampling.Upsample         [None, 2, 'nearest']          \n"," 11             [-1, 6]  1         0  ultralytics.nn.modules.conv.Concat           [1]                           \n"," 12                  -1  1    591360  ultralytics.nn.modules.block.C2f             [768, 256, 1]                 \n"," 13                  -1  1         0  torch.nn.modules.upsampling.Upsample         [None, 2, 'nearest']          \n"," 14             [-1, 4]  1         0  ultralytics.nn.modules.conv.Concat           [1]                           \n"," 15                  -1  1    148224  ultralytics.nn.modules.block.C2f             [384, 128, 1]                 \n"," 16                  -1  1    147712  ultralytics.nn.modules.conv.Conv             [128, 128, 3, 2]              \n"," 17            [-1, 12]  1         0  ultralytics.nn.modules.conv.Concat           [1]                           \n"," 18                  -1  1    493056  ultralytics.nn.modules.block.C2f             [384, 256, 1]                 \n"," 19                  -1  1    590336  ultralytics.nn.modules.conv.Conv             [256, 256, 3, 2]              \n"," 20             [-1, 9]  1         0  ultralytics.nn.modules.conv.Concat           [1]                           \n"," 21                  -1  1   1969152  ultralytics.nn.modules.block.C2f             [768, 512, 1]                 \n"," 22        [15, 18, 21]  1   2126497  ultralytics.nn.modules.head.Detect           [27, [128, 256, 512]]         \n","Model summary: 225 layers, 11,146,049 parameters, 11,146,033 gradients, 28.7 GFLOPs\n","\n","Transferred 349/355 items from pretrained weights\n","\u001b[34m\u001b[1mTensorBoard: \u001b[0mStart with 'tensorboard --logdir runs/detect/train2', view at http://localhost:6006/\n","Freezing layer 'model.22.dfl.conv.weight'\n","\u001b[34m\u001b[1mAMP: \u001b[0mrunning Au
…
